…
opout(.25), tf.keras.layers.Conv2D(filters = 64, kernel_size = (3,3), activation = &#39;relu&#39;), tf.keras.layers.MaxPooling2D(2,2), tf.keras.layers.Flatten(), tf.keras.layers.Dense(128, activation=&#39;relu&#39;), tf.keras.layers.Dense(1, activation=&#39;sigmoid&#39;)] . The above model 23,963,777 trainable parameters and takes around 7 minutes to train per epoch. . model.summary() Model: &quot;sequential&quot; _________________________________________________________________ Layer (type) Output Shape Param # ================================================================= conv2d (Conv2D) (None, 222, 222, 64) 1792 _________________________________________________________________ conv2d_1 (Conv2D) (None, 220, 220, 64) 36928 _________________________________________________________________ max_pooling2d (MaxPooling2D) (None, 110, 110, 64) 0 _________________________________________________________________ dropout (Dropout) (None, 110, 110, 64) 0 _________________________________________________________________ conv2d_2 (Conv2D) (None, 108, 108, 64) 36928 _________________________________________________________________ max_pooling2d_1 (MaxPooling2 (None, 54, 54, 64) 0 _________________________________________________________________ flatten (Flatten) (None, 186624) 0 _________________________________________________________________ dense (Dense) (None, 128) 23888000 _________________________________________________________________ dense_1 (Dense) (None, 1) 129 ================================================================= Total params: 23,963,777 Trainable params: 23,963,777 Non-trainable params: 0 _________________________________________________________________ . Since the model takes around 7 minutes to train per epoch, we trained the model for only two epochs. . model.fit(x=train_batches, steps_per_epoch=len(train_batches), validation_data=valid
…
data from https://storage.googleapis.com/tensorflow/keras-applications/vgg16/vgg16_weights_tf_dim_ordering_tf_kernels.h5 553467904/553467096 [==============================] - 5s 0us/step . Now, let’s summrise the imported version of the VGG-16 Model. . vgg16_model.summary() Model: &quot;vgg16&quot; _________________________________________________________________ Layer (type) Output Shape Param # ================================================================= input_1 (InputLayer) [(None, 224, 224, 3)] 0 _________________________________________________________________ block1_conv1 (Conv2D) (None, 224, 224, 64) 1792 _________________________________________________________________ block1_conv2 (Conv2D) (None, 224, 224, 64) 36928 _________________________________________________________________ block1_pool (MaxPooling2D) (None, 112, 112, 64) 0 _________________________________________________________________ block2_conv1 (Conv2D) (None, 112, 112, 128) 73856 _________________________________________________________________ block2_conv2 (Conv2D) (None, 112, 112, 128) 147584 _________________________________________________________________ block2_pool (MaxPooling2D) (None, 56, 56, 128) 0 _________________________________________________________________ block3_conv1 (Conv2D) (None, 56, 56, 256) 295168 _________________________________________________________________ block3_conv2 (Conv2D) (None, 56, 56, 256) 590080 _________________________________________________________________ block3_conv3 (Conv2D) (None, 56, 56, 256) 590080 _________________________________________________________________ block3_pool (MaxPooling2D) (None, 28, 28, 256) 0 _________________________________________________________________ block4_conv1 (Conv2D) (None, 28, 28, 512) 1180160 _________________________________________________________________ block4_conv2 (Conv2D) (None, 28, 28, 512) 2359808 _________________________________________________________________ block4_conv3 (Conv2D) (None, 28, 28, 512) 2359808 _________________________________________________________________ block4_pool (MaxPooling2D) (None, 14, 14, 512) 0 _________________________________________________________________ block5_conv1 (Conv2D) (None, 14, 14, 512) 2359808 _________________________________________________________________ block5_conv2 (Conv2D) (None, 14, 14, 512) 2359808 _________________________________________________________________ block5_conv3 (Conv2D) (None, 14, 14, 512) 2359808 _________________________________________________________________ block5_pool (MaxPooling2D) (None, 7, 7, 512) 0 _________________________________________________________________ flatten (Flatten) (None, 25088) 0 _________________________________________________________________ fc1 (Dense) (None, 4096) 102764544 _________________________________________________________________ fc2 (Dense) (None, 4096) 16781312 _________________________________________________________________ predictions (Dense) (None, 1000) 4097000 ================================================================= Total params: 138,357,544 Trainable params: 138,357,544 Non-trainable params: 0 _________________________________________________________________ . We can see that teh VGG-16 modeel has 138,357,544 trainable parameters, but as said above, we are not going to train all of them. Instead, we are going to remove the last dense layer us
…
ctions, set rest of the layers as non-trainable and then add a sigmoid activation dense prediction layer with output shape (None, 1). . model = Sequential() for layer in vgg16_model.layers[:-1]: model.add(layer) for layer in model.layers: layer.trainable = False model.add(Dense(units=1, activation=&#39;sigmoid&#39;)) . Next, we print the summary of the model. . model.summary() Model: &quot;sequential_1&quot; _________________________________________________________________ Layer (type) Output Shape Param # ================================================================= block1_conv1 (Conv2D) (None, 224, 224, 64) 1792 _________________________________________________________________ block1_conv2 (Conv2D) (None, 224, 224, 64) 36928 _________________________________________________________________ block1_pool (MaxPooling2D) (None, 112, 112, 64) 0 _________________________________________________________________ block2_conv1 (Conv2D) (None, 112, 112, 128) 73856 _________________________________________________________________ block2_conv2 (Conv2D) (None, 112, 112, 128) 147584 _________________________________________________________________ block2_pool (MaxPooling2D) (None, 56, 56, 128) 0 _________________________________________________________________ block3_conv1 (Conv2D) (None, 56, 56, 256) 295168 _________________________________________________________________ block3_conv2 (Conv2D) (None, 56, 56, 256) 590080 _________________________________________________________________ block3_conv3 (Conv2D) (None, 56, 56, 256) 590080 _________________________________________________________________ block3_pool (MaxPooling2D) (None, 28, 28, 256) 0 _________________________________________________________________ block4_conv1 (Conv2D) (None, 28, 28, 512) 1180160 _________________________________________________________________ block4_conv2 (Conv2D) (None, 28, 28, 512) 2359808 _________________________________________________________________ block4_conv3 (Conv2D) (None, 28, 28, 512) 2359808 _________________________________________________________________ block4_pool (MaxPooling2D) (None, 14, 14, 512) 0 _________________________________________________________________ block5_conv1 (Conv2D) (None, 14, 14, 512) 2359808 _________________________________________________________________ block5_conv2 (Conv2D) (None, 14, 14, 512) 2359808 _________________________________________________________________ block5_conv3 (Conv2D) (None, 14, 14, 512) 2359808 _________________________________________________________________ block5_pool (MaxPooling2D) (None, 7, 7, 512) 0 _________________________________________________________________ flatten (Flatten) (None, 25088) 0 _________________________________________________________________ fc1 (Dense) (None, 4096) 102764544 _________________________________________________________________ fc2 (Dense) (None, 4096) 16781312 _________________________________________________________________ dense_2 (Dense) (None, 1) 4097 ================================================================= Total params: 134,264,641 Trainable params: 4,097 Non-trainable params: 134,260,544 . We observe that, only 4097 parameters are trainable. This will considerably improve the training speed along with the accuracy of the model. We will see this next. . model.fit(x=train_batches1, steps_per_epoch=len(train_batches1), validation_data=
…
ras.layers.Dense(10, activation=&#39;softmax&#39;)] ) . Loss Function &amp; Optimizer . We choose the loss function as ‘categorical cross entropy’ as the number of categorical classifications is more than 2. The loss function is the error rate between the observed labels and the predicted ones. . We used the Adam Optimizer for this particular problem. . Model Summary . model.summary() Model: &quot;sequential&quot; _________________________________________________________________ Layer (type) Output Shape Param # ================================================================= conv2d (Conv2D) (None, 26, 26, 64) 640 _________________________________________________________________ conv2d_1 (Conv2D) (None, 24, 24, 64) 36928 _________________________________________________________________ max_pooling2d (MaxPooling2D) (None, 12, 12, 64) 0 _________________________________________________________________ dropout (Dropout) (None, 12, 12, 64) 0 _________________________________________________________________ conv2d_2 (Conv2D) (None, 10, 10, 64) 36928 _________________________________________________________________ max_pooling2d_1 (MaxPooling2 (None, 5, 5, 64) 0 _________________________________________________________________ flatten (Flatten) (None, 1600) 0 _________________________________________________________________ dense (Dense) (None, 128) 204928 _________________________________________________________________ dense_1 (Dense) (None, 10) 1290 ================================================================= Total params: 280,714 Trainable params: 280,714 Non-trainable params: 0 _________________________________________________________________ . Train the model . The fit function is responsible for training the model. It takes as input the train data as x and the labels as y. In addition to this, we use a validation set as discussed ea
…
